hello_world_float.tflite (tflite, 3164 bytes, 5 tensors)

sequential/dense_1/BiasAdd/ReadVariableOp f4 [16]
000000 00 00 00 00 82 64 81 3e c1 e1 96 be cf 04 8a 3e
       0.0 0.25271994 -0.29469112 0.26956794
000010 00 00 00 00 00 00 00 00 9f 73 89 3e 00 00 00 00
       0.0 0.0 0.26846024 0.0
000020 a6 b7 92 3e c7 5e 2f bd 93 d9 f2 3e 11 c9 b6 be
       0.28655738 -0.042814996 0.4743162 -0.35700276
000030 00 00 00 00 00 00 00 00 71 06 87 3e 00 00 00 00
       0.0 0.0 0.26372102 0.0

sequential/dense/BiasAdd/ReadVariableOp f4 [16]
000000 00 00 00 00 3d 7c c5 be d8 de 90 3e 00 00 00 00
       0.0 -0.3857135 0.28295016 0.0
000010 00 00 00 00 00 00 00 00 00 00 00 00 9f 07 b2 be
       0.0 0.0 0.0 -0.3477144
000020 1d 5e 98 bc 3c a9 b3 bc 00 00 00 00 00 00 00 00
       -0.018599564 -0.021931283 0.0 0.0
000030 00 00 00 00 3c 50 b3 be 0f 2d b3 be ac 69 a5 be
       0.0 -0.3502215 -0.34995314 -0.32307184

sequential/dense/MatMul f4 [16, 1]
000000 b0 89 4d bd 4e 2e df 3e 32 d7 93 3e 62 b0 05 bf
       -0.050180137 0.43590015 0.28875118 -0.52222264
000010 a0 e8 c7 bc 0f 35 dd be 7c 1a b6 be cd 86 13 3f
       -0.024402916 -0.43204543 -0.3556708 0.57627565
000020 6c 04 06 3f 55 64 e8 3e 4c 26 29 be c0 b7 11 bf
       0.523505 0.45389047 -0.16518515 -0.56921005
000030 8c 3f ce bd fd a7 92 3e b0 b6 95 3e 77 16 e5 3e
       -0.10070714 0.2864379 0.29240942 0.44743702

sequential/dense_1/MatMul f4 [16, 16]
000000 bf 7e 92 3e ef 45 9e 3e c8 49 c1 be fb d0 b2 3e
       0.28612325 0.3091273 -0.37751603 0.34925064
000010 4b c1 d8 be 36 a2 51 3e dc e0 fc bd 1e 91 a4 be
       -0.4233497 0.20472035 -0.12347576 -0.32141966
000020 91 58 be 3e fc aa f6 3d 30 4b 6a bd 72 17 56 be
       0.37176946 0.120443314 -0.05720061 -0.20907381
000030 40 7d a6 3c 96 19 4c 3e 4e 0a c9 be cb a7 40 be
       0.020323396 0.19931635 -0.39265674 -0.18814008
000040 4f 42 b4 3e c1 fc 0c be ea 35 81 3e eb a7 9c 3e
       0.3520684 -0.13768293 0.25236446 0.3059686
000050 63 60 69 be 55 38 8c be 31 d0 bc 3e 86 e9 8e 3e
       -0.22790675 -0.27386728 0.36877587 0.2791254
000060 26 f3 8c 3e 3a 06 65 3e ad 2c 86 3e f0 2b df 3c
       0.27529258 0.22365656 0.2620596 0.02724263
000070 59 8f 75 be 3a 8a 6a be 02 21 43 3d c8 9e 1b be
       -0.23980464 -0.22904292 0.0476389 -0.15197289
000080 87 45 8a 3e fe a1 c8 3e f8 81 d9 3b 55 cc c8 3e
       0.2700617 0.3918609 0.006637808 0.39218393
000090 6f eb d1 be 0d 7e 87 3e df 02 71 be 40 85 2c 3e
       -0.40999934 0.26463357 -0.23536251 0.16847706
0000a0 28 56 bf 3e 9b d6 4f 3e a0 89 6e bc 13 ce b3 3e
       0.3737042 0.20296709 -0.01455918 0.3511816
0000b0 6e 53 68 be 2f 63 6d 3e 4f 0e ca 3e d4 b0 c0 3e
       -0.22688076 0.23182367 0.39464042 0.3763491
0000c0 74 01 34 be bf b0 ee 3d 98 b7 5a 3e 8c 26 c8 bd
       -0.1757868 0.116548054 0.21359098 -0.09772977
0000d0 34 c4 d0 3d 80 ce 13 bd f8 60 82 be 7c 85 a4 3c
       0.10193673 -0.036085606 -0.25464606 0.020083182
0000e0 1f 6e fd bd 0d 8d a8 bd e6 f1 db be ee e4 60 3e
       -0.123745196 -0.08230028 -0.4295799 0.2196233
0000f0 48 7d 01 3d 3a 18 19 3d 98 16 8b 3e 13 31 7d bd
       0.031613618 0.03737662 0.27165675 -0.06181438
000100 01 ef a0 3e 90 8f 3a 3d 71 c1 db be 60 18 45 3c
       0.31432346 0.045547068 -0.42921022 0.012029737
000110 66 cf 2b be cf f2 96 3e 29 6e c5 be f9 e8 d7 be
       -0.16778335 0.29482123 -0.38560608 -0.42169932
000120 f2 bf 5c be 67 17 90 3e 75 80 c5 3e 0b c7 aa 3e
       -0.21557596 0.28142855 0.38574567 0.33354983
000130 86 65 15 be 98 03 8b be a7 a5 b3 3e f8 77 ba bd
       -0.1458951 -0.2715118 0.3508732 -0.091049135
000140 20 ad 25 bc 09 2c 8d 3e 04 e6 c0 bd e6 c9 7b 3e
       -0.010112077 0.2757266 -0.09418872 0.24588737
000150 5e 99 c5 be e9 9b 96 3e dc 14 8f 3d fa 20 76 3e
       -0.38593572 0.29415825 0.069864005 0.24036017
000160 b6 53 bb be c0 94 96 be b1 ff ab 3e 26 d7 d1 be
       -0.36587304 -0.29410362 0.33593515 -0.40984458
000170 be 22 4e be c4 7c bc bd c8 85 85 be 18 4d a1 be
       -0.2013044 -0.09203485 -0.2607863 -0.3150413
000180 b8 e0 8a bd 84 c3 c3 bd a0 f9 ce 3e 10 f6 c3 bc
       -0.06781143 -0.09558776 0.40424824 -0.023921043
000190 9d ad 71 be 7e 53 19 3e b8 e1 3a bd a3 52 ca bd
       -0.23601384 0.14973256 -0.04562542 -0.09879043
0001a0 71 44 c4 3e c5 57 20 3e 23 a6 db be dc 2b 07 be
       0.38333467 0.15658481 -0.4290019 -0.13200325
0001b0 e4 33 c3 bd c8 98 79 3e ad a6 c7 be f2 84 bd 3d
       -0.09531382 0.24374688 -0.3899435 0.09253873
0001c0 d7 59 c6 3e a0 6f 94 be 70 21 a1 be 00 87 f2 3b
       0.38740417 -0.28991413 -0.31470823 0.007401347
0001d0 40 b8 4d bc 50 ae 80 3d 91 3d a8 3e 72 18 04 3e
       -0.012556136 0.062832475 0.3285947 0.1289995
0001e0 35 8a cb 3e e0 19 17 bc 5a 52 9b be 00 99 f4 ba
       0.3975388 -0.009222478 -0.30336267 -0.001866132
0001f0 bf d1 ac 3e af 14 63 be dc ce 96 be df ea c8 be
       0.33753774 -0.22175859 -0.29454696 -0.39241692
000200 33 23 c0 3e bf b8 ca bd 57 b9 dc 3e 08 63 38 3d
       0.37526855 -0.09898519 0.43110153 0.04501632
000210 43 e4 c9 3e 66 6c 1b 3e 40 38 f0 bd 65 08 4e bc
       0.39431962 0.1517807 -0.11729479 -0.012575244
000220 a2 00 42 3e 74 35 86 3c 9e b2 1c be 00 d0 63 bd
       0.18945554 0.01638291 -0.15302512 -0.055618286
000230 0d 02 51 be 99 b3 6c be 5f 44 b5 be d0 87 83 3c
       -0.20410939 -0.23115386 -0.35403726 0.016055971
000240 01 d3 94 3e e7 a2 63 3d a9 4c 13 3e 99 e6 92 3e
       0.29067233 0.055575278 0.14384712 0.28691557
000250 4b 77 47 be ae 32 00 be 06 3c 30 be 27 4e 33 bd
       -0.194791 -0.12519333 -0.17210397 -0.043775704
000260 1a 8c 02 bd ea ab 27 be c8 69 45 bd ae a0 23 3e
       -0.031871893 -0.16374174 -0.048196584 0.15979263
000270 da d8 4b 3e 68 92 b4 3d ad e2 cd 3d ba c4 c6 bc
       0.19906941 0.08816987 0.100530006 -0.024263728
000280 c0 44 4c be 02 82 9b be 3a 6f c8 3e 72 6a 28 3e
       -0.19948101 -0.30372626 0.3914736 0.16446856
000290 67 ab b0 3e 65 e1 bd 3e d4 d0 0b be 5a b5 7f 3e
       0.3450577 0.37086025 -0.1365388 0.24971524
0002a0 85 fe 31 bf 3d fd 4e bf dc 3c 80 be 75 14 cc 3e
       -0.6952899 -0.8085516 -0.25046432 0.39859357
0002b0 b8 58 31 3d 44 8e ac be 1c c9 19 be 4a 5d a4 3d
       0.0432975 -0.3370229 -0.15018123 0.08025606
0002c0 bd 11 76 be bc 46 4b 3e cd 83 82 3b 60 39 3f bc
       -0.24030204 0.19851202 0.003982997 -0.011671394
0002d0 8d c7 9e 3e 66 31 15 be d9 05 c2 3e bc 36 13 3f
       0.3101162 -0.14569625 0.37895086 0.57505393
0002e0 23 cf e4 3e cc 8f 72 be b0 12 d9 3c c1 ff 9d 3e
       0.44689283 -0.23687667 0.026498169 0.30859187
0002f0 58 b1 d9 be ca 12 0c 3e b6 25 e6 3e 65 a9 aa bd
       -0.42518115 0.13679042 0.44950646 -0.08333091
000300 19 ea b0 3e 89 c8 a2 3e 4c fe a5 be 73 21 84 be
       0.34553602 0.3179362 -0.32420576 -0.2580677
000310 8a 17 b7 be 75 b9 80 be 57 d0 92 3e a0 e0 39 3c
       -0.35760146 -0.25141492 0.28674576 0.011345059
000320 ad 5a c5 be 94 b4 cb bd 44 8b 2d be 20 5e 3c bd
       -0.38545743 -0.09946552 -0.16947657 -0.045988202
000330 2c 2d 74 be 24 cd c4 3d b7 79 d1 3e 48 9c cb be
       -0.23845357 0.0960944 0.40913174 -0.3976767
000340 34 ef 83 3d fc a2 a8 3d d8 ab 6f be 34 64 ab be
       0.06442109 0.08234212 -0.23405397 -0.33474886
000350 99 a8 d0 3e 46 6c 58 3e db 86 91 be ba f1 65 3e
       0.4075363 0.21135053 -0.284232 0.22455493
000360 cb 48 9a be 00 0b b1 bd fc be 3d be 6e 76 6e 3e
       -0.30133662 -0.08644676 -0.18529886 0.23287365
000370 c0 8b 72 bd 1c ea a0 3d 2d 20 cc 3e de b4 36 be
       -0.059215307 0.07857153 0.39868298 -0.17842433
000380 aa c9 5b 3e 98 a1 fc 3d ba dc be 3e e1 3b d2 3e
       0.21463647 0.12335509 0.37277776 0.4106131
000390 c4 d9 88 bd bb d6 8c 3e b0 7f 5e bd a4 81 53 be
       -0.066821605 0.27507576 -0.05432099 -0.20654923
0003a0 ec 03 73 3e b7 13 65 3e 50 a8 36 be 19 5f a2 3e
       0.23731965 0.22370802 -0.17837644 0.3171318
0003b0 71 36 d0 3e 71 2b fd 3d 73 b2 31 3e d9 e0 87 be
       0.40666535 0.123618014 0.17353229 -0.26538733
0003c0 08 7c a3 bd dd 72 c9 3e b8 c7 7c be 25 3b d7 3e
       -0.079826415 0.39345446 -0.24685562 0.4203731
0003d0 d0 81 56 3d e0 64 5b 3d cc 6b ac 3d 34 38 d3 3d
       0.052369893 0.053563 0.08418998 0.10313454
0003e0 7c b8 94 bd 34 eb 83 bd c0 09 01 be 4c f7 d0 be
       -0.0726175 -0.06441346 -0.12601376 -0.40813673
0003f0 00 7a d5 ba 4c 6b dd be 80 e3 56 3b 80 f7 08 be
       -0.0016286969 -0.43245924 0.003278941 -0.13375664

sequential/dense_2/MatMul f4 [1, 16]
000000 f8 3f 01 3f a1 d8 47 3d c9 a3 b5 be 90 8e cb 3e
       0.50488234 0.048790578 -0.3547652 0.39757204
000010 00 19 7a 3c a0 71 05 3f e4 be c1 3d 40 26 32 be
       0.0152647495 0.52126503 0.094602376 -0.17397404
000020 58 40 12 3f 71 61 06 3f ab bc 95 bf b9 16 91 be
       0.5712943 0.52492434 -1.1698202 -0.2833765
000030 e0 1d 7d 3e 5c 6a dc 3e 71 b6 fa 3d 00 98 07 3f
       0.24718428 0.43049896 0.12241829 0.5296631
